DL EXP-2.pth (torch, 3362 bytes, 6 tensors)

fc1.weight f4 [10, 4]
0.46483886 -0.1697983 0.49648768 0.6728806 0.2994545 -0.35258532 0.055636454 -0.590407
0.057030823 -0.4234664 1.2215513 0.5215293 0.042570837 -0.6061739 1.0487332 0.49999353
-0.2274044 -0.2567035 1.0808347 0.71509117 -0.98428565 1.4085022 -0.37977183 -0.3710553
-0.7259688 0.4464269 -0.48628318 -0.7434175 -0.74260384 0.6986277 -0.60963714 -0.49205762
-0.6684167 0.51011527 -0.57081336 -0.852888 0.26827338 -0.46842557 -0.3775974 -0.58317345
00000000: 5cff ed3e 9bdf 2dbe a233 fe3e e741 2c3f
00000010: 1a52 993e 1086 b4be 0de3 633d ea24 17bf
00000020: 2799 693d 97d0 d8be cb5b 9c3f f282 053f
00000030: c25e 2e3d 362e 1bbf e43c 863f 27ff ff3e
00000040: b3dc 68be a46e 83be cb58 8a3f 3710 373f
00000050: 25fa 7bbf cd49 b43f 7471 c2be f6fa bdbe
00000060: 17d9 39bf 1192 e43e 1cfa f8be 9c50 3ebf
00000070: 491b 3ebf 44d9 323f 2e11 1cbf faee fbbe
00000080: 5b1d 2bbf ea96 023f d320 12bf de56 5abf
00000090: 215b 893e 7ad5 efbe 7254 c1be db4a 15bf

fc1.bias f4 [10]
0.009821104 1.0786053 -0.112628385 -0.6528956 -0.61387694 0.90557957 -0.054617684 -0.028285978
0.08037602 0.67243314
00000000: b2e8 203c bd0f 8a3f b6a9 e6bd 2b24 27bf
00000010: 0a27 1dbf 10d4 673f cbb6 5fbd ffb7 e7bc
00000020: 2f9c a43d 9424 2c3f

fc2.weight f4 [11, 10]
-0.09746803 -0.036193505 -0.118825994 0.0596362 0.11331231 -0.14869088 0.07823311 -0.015660547
-0.055420518 -0.16294844 -0.5293576 -0.2220374 -0.50004154 0.13586517 -0.2288013 0.45330423
0.873991 0.72963476 0.79057175 0.052745964 0.0973921 0.5349309 -0.24259154 -0.20487629
-0.87678283 1.1823068 -0.75638866 -0.7006725 -0.3848768 0.7211427 -0.16421413 -0.2702009
-0.20960774 0.17820355 0.197944 -0.15452047 0.23664759 -0.18793213 -0.27592903 -0.12347992
0.1893592 0.8026816 0.42333835 -0.32459974 -1.1658913 0.4717504 -0.308288 -0.49179965
-0.610775 0.45965075 -0.3443192 -0.30484933 -0.47360292 0.096253194 -0.04487327 0.6382035
0.90765685 1.5337557 0.75695115 -0.033314563 0.27891427 -0.2772681 0.49816498 0.4489018
1.0598091 -1.3697425 0.14750488 0.0720953 0.17125647 -0.30317873 -0.34357437 -0.041204967
0.07888834 0.12132461 -0.30143085 -0.2984284 0.25274542 0.08879999 -0.0185036 -0.247757
0.7021506 0.08746999 0.7048093 0.7332165 1.091738 -0.5331011 -0.20816569 -0.15326901
0.06169702 -0.27459925 0.00076299306 0.2523171 -0.16837327 -0.18940704 -0.15178552 -0.03954132
-0.06232899 0.10193676 -0.09327667 -0.31061837 0.18454058 0.6092926 -0.24897653 -0.60024226
-0.5430457 0.7582218 -0.39120588 -0.52588797 -0.3502425 0.643195
00000000: 529d c7bd a43f 14bd 0b5b f3bd 1745 743d
00000010: 4910 e83d 6c42 18be ae38 a03d 8c4a 80bc
00000020: a000 63bd f5db 26be fb83 07bf c65d 63be
00000030: b902 00bf 3d20 0b3e e34a 6abe 7e17 e83e
00000040: e0bd 5f3f 58c9 3a3f e962 4a3f 270c 583d
00000050: 8275 c73d 3bf1 083f eb69 78be 17cb 51be
00000060: d774 60bf d455 973f b0a2 41bf 465f 33bf
00000070: 920e c5be cf9c 383f c027 28be c657 8abe
00000080: 69a3 56be fe7a 363e d5b1 4a3e 9d3a 1ebe
00000090: bf53 723e 4871 40be 9246 8dbe 0ae3 fcbd
000000a0: 61e7 413e 8b7c 4d3f cebf d83e f031 a6be
000000b0: ed3b 95bf 4589 f13e edd7 9dbe 2acd fbbe
000000c0: c05b 1cbf 5857 eb3e 9b4a b0be 3615 9cbe
000000d0: 157c f2be 6520 c53d 09cd 37bd 4e61 233f
000000e0: 335c 683f 1b52 c43f 8dc7 413f da74 08bd
000000f0: dacd 8e3e 16f6 8dbe 7b0f ff3e 75d6 e53e
00000100: d3a7 873f b953 afbf 850b 173e b3a6 933d
00000110: db5d 2f3e 3e3a 9bbe fbe8 afbe 8ac6 28bd
00000120: 3690 a13d 0a79 f83d 2555 9abe 9bcb 98be
00000130: d967 813e c5dc b53d dd94 97bc 03b4 7dbe
00000140: 24c0 333f 7723 b33d 626e 343f 14b4 3b3f
00000150: 12be 8b3f 5079 08bf 6329 55be 8df2 1cbe
00000160: 04b6 7c3d 4698 8cbe 9903 483a b52f 813e
00000170: 0b6a 2cbe ebf3 41be aa6d 1bbe 14f6 21bd
00000180: af4c 7fbd 38c4 d03d d707 bfbd 5f09 9fbe
00000190: 35f8 3c3e 9afa 1b3f b4f3 7ebe 7aa9 19bf
000001a0: 0b05 0bbf d31a 423f 234c c8be 98a0 06bf
000001b0: fc52 b3be 6da8 243f

fc2.bias f4 [11]
-0.21996368 0.30670315 0.9290479 -0.028243372 0.6500654 -0.3145815 -0.33189398 -0.11872559
0.03269569 -0.3356563 0.8134319
00000000: 293e 61be 3208 9d3e 15d6 6d3f a55e e7bc
00000010: b06a 263f d410 a1be 02ee a9be 6726 f3bd
00000020: eaeb 053d 24db abbe 133d 503f

fc3.weight f4 [3, 11]
0.09134747 0.598642 -0.45187196 -0.05208407 -0.88606733 1.3909626 -1.1380477 -0.1472922
-0.7486301 0.052109558 -0.37925044 0.02115893 -0.839419 1.1204393 0.21655406 0.42179197
-0.5245518 -0.69781715 -0.14667922 -0.13300356 0.039335813 0.9252227 -0.056038182 -0.66128045
-0.5559641 -0.2752355 -0.14729917 -0.29551354 1.0040679 -0.116131894 0.6076523 -0.042925633
-0.5263534
00000000: 6214 bb3d 9a40 193f c35b e7be 1b56 55bd
00000010: 4fd5 62bf 100b b23f 8cab 91bf c4d3 16be
00000020: 39a6 3fbf d570 553d 1d2d c2be 7e55 ad3c
00000030: 2ae4 56bf 8e6a 8f3f 59c0 5d3e 1ef5 d73e
00000040: 0749 06bf 25a4 32bf 1433 16be 1632 08be
00000050: 971e 213d 65db 6c3f 4b88 65bd ad49 29bf
00000060: aa53 0ebf abeb 8cbe 98d5 16be 8d4d 97be
00000070: 4c85 803f 8fd6 edbd 1a8f 1b3f cad2 2fbd
00000080: 19bf 06bf

fc3.bias f4 [3]
-0.11408927 0.18147162 -0.18670408
00000000: a3a7 e9bd b2d3 393e 5b2f 3fbe
